[convolutional]
batch_normalize=1
filters=64
size=3
stride=1
pad=1
activation=relu

[convolutional]
batch_normalize=1
filters=64
size=3
stride=1
pad=1
activation=relu

[convolutional]
batch_normalize=1
filters=128
size=3
stride=1
pad=1
activation=relu

[convolutional]
batch_normalize=1
filters=128
size=3
stride=1
pad=1
activation=relu

[convolutional]
batch_normalize=1
filters=256
size=3
stride=1
pad=1
activation=relu

[convolutional]
batch_normalize=1
filters=256
size=3
stride=1
pad=1
activation=relu

[convolutional]
batch_normalize=1
filters=512
size=3
stride=1
pad=1
activation=relu

[convolutional]
batch_normalize=1
filters=512
size=3
stride=1
pad=1
activation=relu

[pooling]

[convolutional]
batch_normalize=1
filters=1024
size=3
stride=1
pad=1
activation=relu

[convolutional]
batch_normalize=1
filters=1024
size=3
stride=1
pad=1
activation=relu

[pooling]

[convolutional]
batch_normalize=1
filters=2048
size=3
stride=1
pad=1
activation=relu

[convolutional]
batch_normalize=1
filters=2048
size=3
stride=1
pad=1
activation=relu

[avgpool]
