[convolutional]
batch_normalize=1
filters=64
size=3
stride=1
pad=1
activation=mish

[convolutional]
batch_normalize=1
filters=64
size=3
stride=1
pad=1
activation=mish

[pooling]

[convolutional]
batch_normalize=1
filters=128
size=3
stride=1
pad=1
activation=mish

[convolutional]
batch_normalize=1
filters=128
size=3
stride=1
pad=1
activation=mish

[pooling]

[convolutional]
batch_normalize=1
filters=256
size=3
stride=1
pad=1
activation=mish

[convolutional]
batch_normalize=1
filters=256
size=3
stride=1
pad=1
activation=mish

[pooling]

[convolutional]
batch_normalize=1
filters=512
size=3
stride=1
pad=1
activation=mish

[convolutional]
batch_normalize=1
filters=512
size=3
stride=1
pad=1
activation=mish



[avgpool]

[flatten]

[linear]
batch_normalize=1
filters=7
